OptiFlowData/best_lstm_checkpoint.pt (torch, 63791 bytes, 6 tensors)

lstm.weight_ih_l0 f4 [200, 19]
00000000: 26c8 973d 801f a0be e330 2e3e 45c0 f13b
00000010: 30e6 1b3e 8cf9 79bf 1cc3 6e3e 9f68 8b3d
00000020: 612f a8be 57ff 813e 92bc 553e 1b69 f2bd
00000030: b5f7 3cbd 10b3 ccbd 98cc 313d 64b4 5dbd
00000040: 1e65 81bd 3e0f 56bd 26eb 09be 2e43 ffbd
00000050: 1bb9 18bf caad f43d d0c4 15bd 5d46 303d
00000060: dc77 1fbf bc61 91be 0f8e bdbd 84dc 6cbd
00000070: 67bb 72be ded9 bdbc 866f d1be f048 cebe
00000080: 29c1 253e 8419 dbbe 3335 dcbe 4c95 0bbd
00000090: e664 c2bd 86ee f0bd 0a0b dcbd 63ef 4cc0
000000a0: 35f9 cabe 3aca 48be b00f 00be e4bf af3e
000000b0: 6652 70bd b95d 263d a111 02be f80f 91bd
000000c0: ac42 913e 4587 1fbe b4c4 b8bd c54c 3a3e
000000d0: d311 a5bd 4a34 0abe 7813 8dbd ba24 e2bd
000000e0: f9e6 85bd 44d0 be3d d430 2c3f 72a7 14bc
000000f0: 71ae f43e 2edf 89bd 9f5b 353e 78ca 803c
00000100: 88ed ea3c c23a 063e 74c1 98be 803e 50bd
00000110: 3602 d43d 42b5 c03d 27e1 7dbe de2b 293d
00000120: fd1d cf3d 8729 23be 88ee 883d 186c cdbc
00000130: 44b9 213e 5d04 a0be 9977 e5bd 4c52 2d3c
00000140: 4c79 24be 7bb1 a6bc 99f1 35bd d016 013d
00000150: a5e0 93bd 9bf6 0e3e 861f 91bd b0bd 993c
00000160: 2145 ba3d 2b26 ff3c 1755 e8bc e235 21be
00000170: 2814 6f3e 20ce a63b 10fa 573d 7530 6e3d
00000180: bbdf 53bf 1d7e ed3c 411c 0f3e 35c5 66be
00000190: 05e7 aebd 56f9 d13d 0981 39be 732a 9dbc
000001a0: ae6e 3cbd 4caa 6cbd cbe5 fabb 074d 0abe
000001b0: 5713 7a3c 7db4 57be a7ff 10be 9669 513d
000001c0: d48a 1a3d 7a23 21bd bc4a 00bd 56b7 7bbd
000001d0: ed0b 223f b423 403e eceb ca3d 1f17 41bf
000001e0: 0c39 493f 1366 da3d 540f b8bd 2039 ac3d
000001f0: 5f7f ca3e 2101 433c c07e 813e 957c 8fbe
00000200: 2165 6d3e 8259 b43e db06 0b3f 2546 b9bd
00000210: 540c 3cbd fbab dd3d c605 b13e 5c95 213d
00000220: b1b4 c13d 750b a4bd c150 6c3f e3c9 3bbe
00000230: fe4c 223e 8fea 513e 2f05 2ebd 32f5 74bd
00000240: f016 963d 79cd 04bd fddb 74bd 8c08 c2bd
00000250: 9c94 af3c eb1d 163d cc80 7b3d 7c86 01be
00000260: 5753 073e b3c5 c3be 03ef b93e f30e a4be
00000270: 081e 493e f298 0e3e 3724 a23e a4a9 bd3c
00000280: 5c05 633e 4203 973e c21d 05be 1c07 89be
00000290: 2723 c1bd de34 433d c174 adbd f25e 16be
000002a0: eeba 103b b94c 0abe a226 f53d 6d10 643e
000002b0: 1967 a63e 6d1e 13bf 464c 873e b76a f4bd
000002c0: 0a20 0abf 80e3 683e 97dd 8abd 891f e6be
000002d0: f321 55bd df05 8abe ea33 1d3e 227c 623e
000002e0: 8093 f9bd 80fc 083e e34c 02bd d41a 963e
000002f0: 26a7 8f3d e07b 68bd b31e 6ebd aa7b 1b3f
00000300: dd08 20be 545f d8bc 9961 b73e 4566 91bf
00000310: 09e4 473e e77c de3d d3f8 713d d3ae 32be
00000320: b6e2 82be 4af6 3a3e 1f9c 97bc b225 ccbd
00000330: 50f6 70bd 3e34 b43d bf8e eebc 1a4c b9bd
00000340: c43f 5dbd ab2e 5c3e e419 633f 5031 3d3e
00000350: 4767 053e a3ff 3cbc 3656 f23d c96e 593e
00000360: af60 c43d c596 92bd 0185 e1bd 90fb e63c
00000370: 3323 763e 63e4 193e 9aeb 573d c52d 9e3c
00000380: 2242 22bd 387c 9ebe eed6 c7bd f2dc 993d
00000390: cfa5 683e 64fa a5be d0d4 09be d70e a63c
000003a0: 85cc bebc bb59 1340 af36 3fbe 38d9 053e
000003b0: 385b e6bb 7b95 ed3d 7e38 52be 5b14 783d
000003c0: 311b 003e 3cc9 873b 5932 f7bd f0cd d8bb
000003d0: 43cc 963d 94d7 793d db91 c6bd 89bd 423e
000003e0: 25cf 023e 11f2 e4bd a60e d53b 3d17 cfbd
000003f0: 6f20 303a 0d02 8dbb 2c86 6a3e 4f2f fc3d
0.07411222 -0.31274033 0.17010836 0.0073776566 0.15224528 -0.97646403 0.23316616 0.06807064
-0.32848647 0.2539012 0.20872715 -0.118364535 -0.04613467 -0.09995091 0.043408006 -0.054127112
-0.06318115 -0.05226063 -0.13468608 -0.124639854 -0.5965745 0.1194721 -0.03656465 0.043035854
-0.62292266 -0.28394878 -0.09255611 -0.057827488 -0.23704301 -0.023175176 -0.40905398 -0.40290022
0.16186966 -0.42792904 -0.43009338 -0.034077927 -0.09491901 -0.11764245 -0.10744293 -3.202111
-0.39643255 -0.19608393 -0.12505984 0.34326088 -0.05867233 0.040616725 -0.12702037 -0.07083124
0.2837118 -0.15578945 -0.09021893 0.18193348 -0.0806004 -0.13496509 -0.06888479 -0.11042161
-0.06538195 0.09317067 0.67262006 -0.009073125 0.47789338 -0.06732021 0.17710732 0.015721545
0.028677717 0.13108352 -0.29835093 -0.050840855 0.10351984 0.09409572 -0.2479292 0.0413016
0.10113142 -0.1593381 0.06686121 -0.025075957 0.1579333 -0.3125333 -0.11204452 0.010578703
-0.16061896 -0.020348301 -0.04441986 0.031515896 -0.07220582 0.1396126 -0.07086091 0.018767208
0.090952165 0.03114613 -0.028360886 -0.15743211 0.23347533 0.00509049 0.052728713 0.05815168
-0.8276326 0.0289908 0.13975622 -0.22536166 -0.08540157 0.10252635 -0.1811563 -0.01918528
-0.04600399 -0.057779595 -0.007656788 -0.13505946 0.0152634 -0.21064945 -0.14160024 0.051126085
0.037730053 -0.039340474 -0.031321272 -0.06145414 0.6329945 0.1876362 0.0990828 -0.75425905
0.7860267 0.10664 -0.089872986 0.08409333 0.395503 0.011902125 0.25292015 -0.28024736
0.23183109 0.3522454 0.54307336 -0.09046582 -0.045910195 0.10823818 0.34574717 0.03944908
0.09458292 -0.08009998 0.9231072 -0.18338732 0.15849683 0.20499633 -0.042485412 -0.05980415
0.07328594 -0.032422516 -0.05978011 -0.094742864 0.021433167 0.036649626 0.061402127 -0.12648958
0.13215385 -0.3823677 0.36315164 -0.32042655 0.19640362 0.13925532 0.31668255 0.02315218
0.22170013 0.29494673 -0.12999633 -0.26763237 -0.09430533 0.04765784 -0.08469535 -0.14684656
0.0022084075 -0.1350583 0.11970259 0.22271891 0.32500532 -0.574683 0.2642538 -0.11934417
-0.5395514 0.22743034 -0.06780546 -0.44945934 -0.05203433 -0.26957604 0.15351835 0.22117665
-0.121863365 0.13377571 -0.031811606 0.29317343 0.07014303 -0.05675876 -0.058134746 0.6073557
-0.15628381 -0.026412643 0.3581665 -1.1359335 0.19520582 0.10863667 0.059075188 -0.17449503
-0.25563592 0.18258014 -0.018507062 -0.09968127 -0.058828652 0.08799027 -0.029120801 -0.09047718
-0.05401589 0.21502177 0.8871138 0.18475842 0.13027678 -0.011535558 0.1183285 0.21233667
0.095887534 -0.07157663 -0.110116966 0.028196126 0.24036865 0.15028529 0.05271492 0.019308934
-0.03961385 -0.30954146 -0.097577915 0.07512845 0.22719501 -0.32417595 -0.13460088 0.020270748
-0.023290882 2.3023517 -0.18673204 0.13071144 -0.007029917 0.11600777 -0.20529363 0.060566287
0.12510373 0.004143862 -0.1207015 -0.0066163465 0.073631786 0.060996607 -0.096957885 0.19017614
0.12774332 -0.11178983 0.0065019904 -0.10111854 0.00067187 -0.004303223 0.22902745 0.12313711

lstm.weight_hh_l0 f4 [200, 50]
00000000: 140e f33c 9a05 8b3f 3878 233f a055 1fbd
00000010: 49b6 76be f58f aa3d d622 30bf 3a5b a6be
00000020: 03e6 0ebe 159f 81bc 48fd a13e ec04 f83e
00000030: ee83 17be 38e5 263d 6aac 1ebf a2be 393d
00000040: ce43 833e 501e 913e 06ab 0c3e 51f9 ce3d
00000050: 169b 6abe ecf2 213e f4dc 03be cf92 803d
00000060: 26b2 edbe b553 cebd 228f acbd 5091 96be
00000070: 9b26 0dbe bdce 743c 45c2 263e 690d 60bd
00000080: 4cf7 febd 56c6 953e 3354 80be 9e84 66bd
00000090: ca90 32be 638b 223e 1aee 95be ed48 103f
000000a0: 9414 4ebe e865 babd f99a 3abe 5415 e13e
000000b0: 848a fd3c 69e5 a6be 8335 6fbe 9914 57be
000000c0: d629 903b f2c6 b33d 4ccb 2fbd c8bb 893e
000000d0: f89f 243e 2859 c5bc cfc5 b73d eabc 16be
000000e0: 82b6 02bd 9546 473d 9d71 243e 5a18 0c3e
000000f0: 70d3 9cbe be58 5ebd ccb2 593d 2973 433d
00000100: f361 f8bc 70c8 093d 8803 fb3d bf8a 0cbe
00000110: 530e 403d c0e0 593e 1a0b 9a3e 9b04 ad3c
00000120: e3ce 803d 587a adbd f893 983e ca90 a73c
00000130: a407 d1be 7aca 4fbe 1e86 c73e 690a e0bd
00000140: 34cb 2abc dd93 d83c 6081 403e 3a10 803c
00000150: 318a a1bc 5f34 69bd 4ca7 82bc b3d2 2abe
00000160: 1ac8 813e a28b ee3e a633 6b3e 334e 2c3e
00000170: 514f 77bd fc46 3a3f e2c7 143e c656 c03c
00000180: d9b3 c0bd 7a0b 79bc f20d 723e 5167 e43e
00000190: b2ac 4dbe ea25 793e 499b f6bd d886 e0bd
000001a0: 8c31 113d 4678 403d 91a8 853e e163 2f3e
000001b0: 3bce d3bd a9d8 183b 5883 dc3d 0f74 93bd
000001c0: 6f30 3c3e c5cd a7bd fe2b f53d b888 bebd
000001d0: 342a b63d 8c8e 953e 6839 00be ac3d 243f
000001e0: 4af9 9b3c 9cfe 243e b25d 033e a607 053e
000001f0: 4bc2 81be 6c91 5f3b 21a1 aebe 1edf cd3d
00000200: 9a89 393e af33 1bbe f821 08bd e67d 1cbf
00000210: 270d 89bd f000 973d a2f8 493d e21d e23d
00000220: b6e3 a5be aa06 65be 1ec7 6a3c 1d9a 463e
00000230: 3766 3bbe e887 833d 4ce6 bebe 2860 4b3e
00000240: f88c 38be af9a 4e3e bfed cabe 066d 313e
00000250: df4e bbbd 1122 5cbe 6f22 f93c 2d21 a1be
00000260: 4d55 96bb 5971 a63d eee3 09bd 0e9c 9a3e
00000270: 406e 3e3e 6856 99be f113 18be f527 f3be
00000280: 1d15 2f3f 0a03 f83e 5a46 86be 65f3 23bc
00000290: ee16 e6bc 738f 57bd 68ab 91be 343f 083d
000002a0: 4f49 733d 1b43 1d3e a0bb 86bd 8745 08bf
000002b0: 0fde b83d 1f53 9abe 4beb 3a3e 5a4c ac3d
000002c0: 0833 ae3e 52f8 a4bd e6e3 3bbd afa0 16be
000002d0: a2b1 023e 6a78 ce3e a672 1dbf e343 95be
000002e0: 92ad 523e df3e 073f dacd 1c3f fbfe 10be
000002f0: aa41 f13d 8082 bdbe 288d bf3d a2d5 6cbd
00000300: 3b06 ff3e 7446 44bf cf1f 08be 8944 e53e
00000310: c895 c3be d15e 523b 4869 403b 44a3 2e3d
00000320: 17cf 203e 230d efbe ad1b 28bf 9fcd 84bd
00000330: 818a 0d3e a7ea 7cbd fae2 de3d e14f 183d
00000340: 84d0 a7bb 9e8d 0f3e 6d9f f83d 8d91 bfbe
00000350: 9854 49be 69d2 01be f411 2a3e 8083 223e
00000360: 71b5 263e 0ab8 e43d 94a1 9a3d e384 d73e
00000370: 0951 ec3e 9f26 abbd 459b ad3c fa35 be3b
00000380: 54a8 263e d229 a83d b157 19be 36c2 443c
00000390: efd3 87be 7064 ccbc 8042 b8bd cdfb 89be
000003a0: a5dd 6dbd 344b 32bd 6f04 11be b98e 3ebe
000003b0: 604b c5be 5e39 2ebb e5d2 f23d f63e 27be
000003c0: 38fe f6bc 3c7d fbbd a63a f23e 0cc1 853e
000003d0: bef0 27be 017f 7e3e e588 16bd 5c47 e33d
000003e0: d59a 5bbe 5a39 d63d b021 163e 0809 7d3d
000003f0: ae90 92bd a028 1a3d ffea 88bd ae39 c23d
0.029669799 1.0861084 0.63855314 -0.038900018 -0.24092974 0.08328239 -0.68803155 -0.32491475
-0.1395493 -0.015822927 0.3163855 0.48441255 -0.14796421 0.040745944 -0.61981833 0.045347817
0.25637668 0.2834344 0.13737115 0.10106147 -0.22910723 0.15815324 -0.12877256 0.062780015
-0.4642498 -0.100745596 -0.08425738 -0.2940774 -0.13784258 0.014941868 0.16285045 -0.05470029
-0.12449512 0.2925288 -0.2506424 -0.056278817 -0.17438045 0.15873484 -0.2928322 0.56361276
-0.20125037 -0.09101468 -0.1822318 0.43961585 0.030949838 -0.325969 -0.23360257 -0.21003951
0.0043995185 0.0877818 -0.04291849 0.26901078 0.16076648 -0.024090365 0.08973276 -0.14720502
-0.031912334 0.048651297 0.16058965 0.13681164 -0.30630064 -0.05428385 0.05314903 0.047717247
-0.030320143 0.033638418 0.12256533 -0.13724802 0.04688866 0.21277142 0.30086595 0.02112036
0.062894605 -0.08470601 0.2980039 0.020454783 -0.40826142 -0.20292082 0.3896951 -0.109394856
-0.010424424 0.026437694 0.18799353 0.015632737 -0.019719215 -0.05693471 -0.015948914 -0.16681938
0.25347978 0.46590906 0.22968921 0.16826706 -0.060378376 0.72764564 0.14529374 0.023478877
-0.09409303 -0.01520049 0.23638132 0.44610074 -0.2008541 0.2433087 -0.12041337 -0.109632194
0.035447642 0.0469897 0.26105168 0.17127945 -0.1034207 0.00233225 0.10767239 -0.07199871
0.18377851 -0.08193544 0.119712815 -0.09303421 0.08894768 0.29210317 -0.12521899 0.64156604
0.019039769 0.16112751 0.1282871 0.12991199 -0.25343546 0.0034113778 -0.34107307 0.10052322
0.18118897 -0.15156434 -0.03323552 -0.61129606 -0.06691962 0.07373226 0.04930938 0.11040856
-0.32400292 -0.22365823 0.0143297 0.19394727 -0.1830071 0.064224064 -0.37285078 0.198609
-0.18022525 0.20176195 -0.3963451 0.17326745 -0.09145903 -0.2149737 0.030411927 -0.31470624
-0.0045878054 0.08127088 -0.033664636 0.30197185 0.18596745 -0.29948735 -0.14851357 -0.47491422
0.6839159 0.4843982 -0.2622555 -0.01000676 -0.028087106 -0.05262704 -0.28451085 0.0332634
0.059396084 0.1535763 -0.065787554 -0.5323109 0.09026729 -0.3014154 0.1825382 0.084130004
0.3402331 -0.08055176 -0.045871638 -0.14709733 0.12763074 0.40326244 -0.61503065 -0.29153356
0.20574024 0.5283031 0.61251605 -0.14159767 0.117801026 -0.37013626 0.09353095 -0.057820924
0.4980944 -0.7667 -0.13293384 0.4477885 -0.38200212 0.0032099972 0.0029359628 0.04263617
0.15703999 -0.4668971 -0.6566723 -0.064845316 0.13822366 -0.06174722 0.10883136 0.037185553
-0.0051212925 0.14018866 0.12139783 -0.37415734 -0.19661176 -0.12677921 0.16608411 0.15870476
0.16280152 0.11167915 0.0755035 0.42093572 0.46155575 -0.08356976 0.021192202 0.0058047744
0.1627515 0.082111016 -0.14974858 0.012009194 -0.2652888 -0.024950236 -0.08997059 -0.2694992
-0.058072705 -0.04352875 -0.14161848 -0.18609132 -0.3853407 -0.0026584486 0.11856631 -0.16332611
-0.030150518 -0.12279746 0.4731037 0.26123846 -0.1640043 0.24853136 -0.036751647 0.11097595
-0.21445782 0.10460158 0.14661288 0.06177619 -0.07156502 0.0376364 -0.06685447 0.09483658

lstm.bias_ih_l0 f4 [200]
00000000: 869e b93d 46e4 e1bc 1fd1 fd3d fa06 27be
00000010: 61a7 093e 63db 8bbd 3809 513e 3f29 ffbb
00000020: c264 e93d b911 e9bc 941b a7bd d219 1f3d
00000030: 640f 4f3e efc5 1a3d 9d75 4b3e a3fd c33b
00000040: 9097 08be 91f6 833e 6e32 653e a5dd 43bd
00000050: 7606 29be 30e7 1abd d300 453e c3c1 983c
00000060: 9c69 9e3d 2efb adbc b94c ce3d 8d0c 40bd
00000070: 5564 ad3d 696a b03d a0cb e2bd 7012 eebd
00000080: c9c7 90bd f8fb 19bd 7ec0 003d 3203 e73c
00000090: 7002 a3bd 7867 793d 4e47 c5bd 7370 a0bd
000000a0: 0390 f43d c6fb d4bd 2c26 f43c f1ad 52bd
000000b0: c803 fcbc e530 06bc 392e e4bc 8905 b0bd
000000c0: 37c1 00be 594f 313e 06fa d7bc 6024 313d
000000d0: 08b5 683e 9806 1e3e 901f 063d f3b9 aa3d
000000e0: 335b 3bbe 56e2 78bd d787 e33d dd0e 603e
000000f0: 1511 323e f4a9 c5bc 0770 bd3b e1b6 9c3c
00000100: 144b ab3d 474c b73d 67a6 203e bba0 2a3d
00000110: d742 d93d a89c 063e 24fc c9bc 47f0 ea3c
00000120: 7959 8d3d 2601 f13d 0079 1a3c 629f 0a3e
00000130: bc8d c8bb a683 083e 017f 4e3e 364b 183e
00000140: faa7 bf3c a1e6 993d b381 36bd 5374 0e3d
00000150: af6f 95bb 9b7b 5b3d be0e aa3e b4ce 623e
00000160: 93d9 c03d 5874 ccbd 2381 0e3e d816 94bd
00000170: 4653 503e 7e3f 743e 6c33 523d 6dbf 923d
00000180: efee 5b3e 6c2d bd3d 14e1 ed3d 1850 8dbd
00000190: 8fc6 b7bd 7632 083d 5418 43ba f345 ce3d
000001a0: 5f1f cdbd ee42 9a3d 7eea a63d 4a04 41bd
000001b0: 4c2c a6bd 7b43 8b3d 49ae a33c 477b 483d
000001c0: fb87 6a3c 6012 b63d 82c4 50bd 1722 d83d
000001d0: 56d5 c1bd 58f2 dfbc 7036 c8bd b6c3 fd3c
000001e0: d656 8e3d 4831 02be fe87 08bd 7b5a 8db8
000001f0: eba1 103e 8dab d7bd a924 bbbc 9192 2c3d
00000200: 7244 bebc 7d6e 553d 9132 b8bd 6ee3 df3d
00000210: 4bef 60bd 028d 033e 21a0 85bd eb05 babd
00000220: b75f 95bb c095 50be 11ad 28bd 83e8 83bd
00000230: a57d 503c 5e23 55bd bdbc c03c 9c59 133c
00000240: 3902 163e 6e04 293d 54e5 7e3d 7842 3ebd
00000250: 1abf 93bd ff51 03be 3ffc c4bd 4d5c c83d
00000260: 3d91 473e bf53 cfbc 3fc4 9cbd beaa e33c
00000270: 736a 90bd 9769 dd3c 05d4 fabb 65a8 40bd
00000280: a398 d53d bbbe 493e 0e32 913e 4c33 30bd
00000290: 0f82 7abd 588d b13d e6a1 953b 1e86 c93d
000002a0: 8628 d23d a651 5ebd 2063 013e 3d46 85bd
000002b0: 71f3 4fbd 6d4f a2bd f0c9 0cbc 624c d03d
000002c0: 749c 3f3e 4d06 133d 5ea2 dc3c c8f2 0cbd
000002d0: 1c86 e73d 87ef ab3c e3ae ca3d 50b2 9b3d
000002e0: 087d c43c 9409 123e b7e4 98ba b444 81bd
000002f0: 8a84 debd 389c edbd 742b 08be b499 f139
00000300: bb09 1a3e 1347 eb3c e919 463e a0bd 773d
00000310: 981f 583d f9ca 7ebd 36d3 d03a adc9 2c3e
0.09063439 -0.02757467 0.12393402 -0.16311255 0.13442756 -0.06828954 0.20413673 -0.0077868993
0.11396171 -0.028450834 -0.08159557 0.038842984 0.20220715 0.03778642 0.19869085 0.0059811636
-0.13339067 0.25774053 0.22382519 -0.0478188 -0.16506371 -0.037818134 0.19238596 0.01864708
0.07734987 -0.021237936 0.100732274 -0.04688697 0.084664024 0.08614046 -0.11073995 -0.116246104
-0.07069356 -0.03759381 0.031433575 0.028199766 -0.07959449 0.06088969 -0.09632741 -0.07833948
0.119415306 -0.103995845 0.029803358 -0.051435415 -0.030763522 -0.008190368 -0.027854072 -0.08594806
-0.12573706 0.17315425 -0.026364338 0.04324758 0.22725308 0.15432203 0.032744944 0.08336248
-0.18296508 -0.060762726 0.11109894 0.2188067 0.17389329 -0.024128892 0.005781177 0.019130172
0.083639294 0.089500956 0.15688477 0.04165719 0.10608452 0.13145697 -0.024656363 0.028679026
0.06901831 0.11767797 0.009428263 0.13537362 -0.0061204117 0.1333147 0.20165636 0.1487244
0.023395527 0.07514692 -0.044557285 0.034778904 -0.004560433 0.053584676 0.33214372 0.22149163
0.09416499 -0.09983128 0.13916449 -0.072309196 0.20344266 0.23852345 0.05131857 0.07165418
0.21477865 0.09237179 0.11615196 -0.06900042 -0.08973419 0.03325125 -0.0007442285 0.100719355
-0.10015749 0.07532297 0.081501946 -0.04712323 -0.08113918 0.0679998 0.019980567 0.04894569
0.014314647 0.088902235 -0.050968654 0.10553377 -0.09464519 -0.027337238 -0.09776008 0.030977111
0.069501564 -0.12714112 -0.033332817 -6.740257e-05 0.14124267 -0.105307676 -0.02284463 0.042131964
-0.023225997 0.052107323 -0.0899402 0.10932051 -0.054915708 0.12846759 -0.06524683 -0.0908316
-0.0045585292 -0.20369625 -0.041180674 -0.064408325 0.0127252685 -0.052035682 0.023527497 0.0089935325
0.14649285 0.04126399 0.062230423 -0.04645011 -0.07214184 -0.12824248 -0.096184246 0.0978323
0.19488998 -0.025308488 -0.076546185 0.027791377 -0.070515536 0.027027888 -0.007654669 -0.047035594
0.10429504 0.19701664 0.283585 -0.04301767 -0.06115919 0.08669537 0.004566419 0.09840034
0.102616355 -0.054277085 0.1263547 -0.065075375 -0.050769273 -0.079253055 -0.0085930675 0.10170819
0.18712026 0.03589468 0.026932891 -0.03441122 0.11304876 0.020988239 0.09896638 0.0760237
0.0239854 0.14261466 -0.0011664842 -0.06311932 -0.108651236 -0.11602062 -0.13297826 0.0004608162
0.15042774 0.028720414 0.19345821 0.060483575 0.052764505 -0.06220529 0.0015932086 0.16873808

lstm.bias_hh_l0 f4 [200]
00000000: 7a7a 343e f684 3a3b 2ace a2bd 0082 89bd
00000010: 764b 80bd 121d b23c 3f86 553e 75da 253e
00000020: 02dc 493c e2b8 caba 3aa4 513d 5930 88bc
00000030: 1ef2 953b c180 20bd 8af9 023e 6669 f7bb
00000040: 7b74 13bd 5c8e b03b 3929 e63c 58d7 1cbe
00000050: a4ea 1a3d f41b 123d c813 e73d b753 f73d
00000060: f458 93bd a817 2c3e 9996 f93d fe61 603b
00000070: 0aa0 1a3d e4b9 babc 20fe 573d e11b dd3c
00000080: 1139 083e e575 d63d 5094 153e 7376 843d
00000090: 3c40 6bbe e9e0 bb3d 9c26 b1bd 755a 813d
000000a0: a592 85bc f29a b8bd 3bbf 193e 6c81 dc3c
000000b0: 32b4 e43a 0839 a43d 12fb 18be f367 8bbc
000000c0: 8b82 473d b1d5 b43e e060 35ba 1c6b 273d
000000d0: 599f 903c 1697 183e 28b2 47bc c1ee e43d
000000e0: 6d6a b23c 2d59 553e b309 183e afe0 3b3d
000000f0: afbb 9c3c eb62 4b3e 3fe2 513d 1017 0e3e
00000100: 35c6 5c3e 3f66 893e 33cc 77bc 566d 34bd
00000110: d004 d93d d815 1d3e 7517 063e 0c32 2c3e
00000120: 2027 293e c68d 5dbb d9d6 5f3e ce23 f33d
00000130: 2d60 d73d b57b 833e a6a8 ea3d 7f0c 0abd
00000140: ec40 0b3e 2a12 dd3c 7f13 2c3e 3eb3 d7b9
00000150: 70dc b8bd 3320 353e f36b d93d c080 4e3d
00000160: bc5e 413e 0fa3 09be 9980 ca3d c1db 3b3c
00000170: 193a 0a3e 0120 573e f575 ab3c 502c 1b3e
00000180: 6a90 a33d 2200 b43d 7f4d f83c 7676 afbc
00000190: 4363 ca3d 049d 033e 5236 4b3d 5a79 d1bd
000001a0: 1bb1 b93d 17ba c83d 3b7c 883c 7da6 c63d
000001b0: 84a0 913c 11e1 423d 5285 813c 0ecf 5d3d
000001c0: 7237 243d af3d 903d 1cbe 163d 58a1 21bb
000001d0: 2aae e13c b336 91bc 5902 e03d 4b30 0ebe
000001e0: 64f9 83bd 3686 0bbc 7a56 61bd daf7 02be
000001f0: 0d46 a2bd 3d0c 00be a88a 6bbd 286c babb
00000200: 91c4 c6bd 6378 933d 1b08 fdbc 85d4 41bd
00000210: 12f2 e63d bfbe 28bc 2f9d e63d 9915 fe3d
00000220: 6e92 f53d 0eca 0ebd a2e8 cd3d 9409 cd3d
00000230: 81c7 e63c dfd8 d7bd b4a5 c43d 76c7 01bd
00000240: c054 3c3c 4e27 b43d 0abe 0cbd 051a 4cbd
00000250: ea34 1f3c 8108 98bd b683 e3bd dd31 573d
00000260: 12a5 193d 518f 8ebd 39f8 8ebd 1ce0 703d
00000270: 90a8 b33c 5885 02bd b56d 5b3d 1934 bfbc
00000280: 3fd8 063e e3f1 1b3e 9a00 da3e c9bf 8bbd
00000290: 259a b03d fa5e dfbd 1ea5 f3bd a9a9 353d
000002a0: 73e7 f2bd e4f4 c13d 2103 a13d 985b 063e
000002b0: 4f8b b83c dc48 b03d 0996 95bd 97d5 9e3d
000002c0: 9b3a b03d 94ea e8bc f3b9 043c bf58 c2bd
000002d0: 9915 19bd 03b8 3e3e de76 723d 0482 a03d
000002e0: ef63 0a3e 23e9 f63d 9cdc 3f3e 9d6c 3c3e
000002f0: 7dae b63d 6677 4a3d ca38 f83d c3d1 d03d
00000300: d6da 113c b455 913d fc41 8b3d e1f0 d7bc
00000310: 5116 ea3d 320a 8e3d 51ec 043d 8ec8 893e
0.17624846 0.0028460599 -0.07949479 -0.06714249 -0.06264393 0.021742377 0.20851992 0.16196616
0.01232052 -0.0015466476 0.05118201 -0.016624616 0.0045759818 -0.03918529 0.12790504 -0.0075504063
-0.035999756 0.0053880643 0.028095828 -0.15316522 0.037821427 0.03567119 0.1128307 0.12076514
-0.07194701 0.16805899 0.12186927 0.0034238095 0.03775028 -0.022793718 0.052732587 0.026990833
0.13303019 0.10471705 0.14607358 0.06467905 -0.22973722 0.091737576 -0.08649942 0.063160814
-0.016305277 -0.090139285 0.15014355 0.026917182 0.0017448722 0.0801869 -0.14939526 -0.01701734
0.04870848 0.35319284 -0.00069190376 0.04087363 0.017654108 0.14901385 -0.012188472 0.11178351
0.021779263 0.20834799 0.1484745 0.04586857 0.019132463 0.19861953 0.051241156 0.13875985
0.21559985 0.2683582 -0.0151243685 -0.044049583 0.10596621 0.15340364 0.13094886 0.16815966
0.16518831 -0.0033806427 0.21859302 0.118720636 0.10516391 0.25680318 0.114579484 -0.033703323
0.13598984 0.0269862 0.16804312 -0.0004114154 -0.0902642 0.17688064 0.10616293 0.050415754
0.18883795 -0.13441108 0.09887809 0.011465968 0.13498725 0.21008302 0.02093027 0.15153623
0.07986529 0.08789088 0.03031039 -0.021418791 0.09882214 0.12852865 0.04961235 -0.10228224
0.09066983 0.09801119 0.0166608 0.09699724 0.017776735 0.04757792 0.015810642 0.05415254
0.04009194 0.07043015 0.036802396 -0.0024662819 0.027548868 -0.017726278 0.10937948 -0.1388561
-0.06444052 -0.008515885 -0.05501411 -0.1278986 -0.079235174 -0.12504669 -0.05750528 -0.0056891628
-0.09705461 0.07200696 -0.030887654 -0.047321815 0.1127664 -0.010299384 0.11260449 0.12406463
0.1199082 -0.034860663 0.10054137 0.100115925 0.028171303 -0.10539412 0.09601918 -0.03168436
0.011494815 0.08796559 -0.034360923 -0.0498295 0.009717206 -0.07423497 -0.11109106 0.052537788
0.03751094 -0.06960929 -0.069809385 0.058807477 0.021930963 -0.031865448 0.05357142 -0.023340272
0.13168429 0.15228991 0.42578584 -0.068236895 0.08623151 -0.10906787 -0.11896728 0.044351254
-0.11860552 0.09470537 0.07861925 0.13120878 0.022527365 0.08607647 -0.073040076 0.07755583
0.08604928 -0.028432168 0.008100974 -0.09489583 -0.037374113 0.18624882 0.05919539 0.078372985
0.13514684 0.12056186 0.187365 0.18400808 0.0892 0.049430273 0.12120207 0.10196259
0.008902272 0.07096425 0.06799695 -0.026359977 0.11430038 0.06935538 0.03245193 0.26910824

fc.weight f4 [24, 50]
00000000: 2617 483d b2ce 813d db76 c5bd b659 8b3e
00000010: d9bd 883c ffb1 cf3d d1d1 83be c38b 5b3d
00000020: 4dc8 8e3c 6b43 cabd 2a64 60bd 527e 363e
00000030: e0a1 b8bd cced fd3c 0376 2bbc ba09 bf3c
00000040: cf10 46be 4563 c73c e433 8abd f2a9 313b
00000050: c7c1 94bd 94e0 703d 1f1e a3be 7d96 b3bd
00000060: 8cfa 413c 2f87 39bb cc1d 533d 3a45 853d
00000070: 6c0d 70bc ee29 4b3e 8507 583c 10f7 d9bd
00000080: e992 82bc b52f 5d3d 3d38 de3d 69b0 173d
00000090: b8af 2fbd 5e60 26bd 28bd 513d 1b93 d4bd
000000a0: d7f7 ba3c a1c5 94bb d472 97bd f42a 453d
000000b0: d0d7 fb3d 3abd 35bc 1877 05be c24b c9bd
000000c0: 93e2 933e 169e 8ebe d26f a53b f2d4 bb3d
000000d0: 0d4b a0bd 35c1 483e ef22 ae3c 5934 073e
000000e0: 4a00 e83b cbfe 9c3d 16b3 c33c 04a5 93bd
000000f0: 9604 60bd 8161 2a3e c67d 1a3d e8a6 2b3e
00000100: 805e a4bc a438 0d3e 43c4 03be 178d e5bb
00000110: eed2 223b 7f0a e23c 2d46 31bc 49bb 2c3c
00000120: 69e9 54be ec46 14be 9285 ebbb 5127 0ebd
00000130: 1c68 193d 7e97 ffbc c070 9c3c 8bba 6e3e
00000140: 2c43 c83c 3c23 02bd 8bd3 29bd b1f9 be3c
00000150: c29e 113e 5c31 da3b bf12 c8bc 2dd5 4bbd
00000160: 9fc4 8b3d 73fa aabd b0cb 95bb 497c 2bbc
00000170: e8a7 aebc 2e07 90bc cc3c d43d 74a7 41bd
00000180: 77b6 cfbc e951 15be 62c9 cc3e 02d7 b6bd
00000190: 7ed5 62bd 5072 8d3d 3c3d ddbc ad0c b23d
000001a0: 6057 dc3c 750d 303e 8247 c73d f1c7 8f3d
000001b0: bd39 dd3c 07b4 14bd 9ddf cbbc ccf1 bf3d
000001c0: 7676 c83d afbb 773e 8140 c5bb b219 163e
000001d0: 3620 d4bd 6dcb aebc 002c 033d 6a02 603d
000001e0: f77e e53b 7a11 363c fb37 d8bd 0e04 23be
000001f0: 1d2b 79bc e65c 38bd 8ff1 f13c d7bd e5bd
00000200: 6b39 833d e496 a13d 810d 703d 71e2 3c3d
00000210: b5f6 0ebd a214 3b3c 103d 253e af12 0cba
00000220: 2e64 8f3c 6fff 34bd 6bf6 223d 62e6 23bd
00000230: ce71 0ebd 57e0 8fbd ca56 853c 63cd 6cbd
00000240: 3494 c33d b684 5bbd 4cba 4d3d bd0b 1ebe
00000250: e4ad af3e a95f 483d 1f42 f6bd 2aa3 f33c
00000260: 935d f73c c79e 643d 1ad8 2d3d 6a22 283e
00000270: c069 403d 9593 e33c 8ff3 0c3d d226 d9bc
00000280: 33f8 823c 9a9e 8f3c 8eec a73d 4eb4 7d3e
00000290: a433 993c 5aa3 ce3d 6db5 c0bd 363f f0ba
000002a0: 42be a43c 5f06 863d bbac 96bc b16f ca3c
000002b0: 97f0 89bd 4b4e d0bd 3d68 71bb ed26 73bd
000002c0: e5ca 1e3d d7eb 14be 6f84 c23d f799 173d
000002d0: 6bab 883d 4a77 9f3d 7f1d 8bbc cae4 8c3c
000002e0: 9472 343e 6778 c83b 8863 973d 4108 3ebd
000002f0: 0ba1 8c3b e397 9ebb 5a75 4bbd c31b 64be
00000300: b9be a13c 38a7 6ebd 7266 c93d 2103 29bd
00000310: 1c38 9a3d 18ff 0bbe f880 3c3e e308 c53d
00000320: e569 22be 8c55 0bbc 74a1 873d fead 9b3d
00000330: 4c5c 3c3d ecb4 223e 1587 f2bc 2071 af3a
00000340: d1ad 353d 3375 02bd 5e5a 2d3d 8573 37bd
00000350: add3 3f3d 19c5 633e 8ef8 9b3c 12c1 2a3d
00000360: f8a8 d9bd b2b0 013d f9e9 d9bc 3c5b 733d
00000370: 13d7 96bd ed0f 333d 6a82 81bd 2047 2fbd
00000380: 4323 8b3c 4c69 54bd bfbc f93c ce5e 2ebe
00000390: a7dc db3d bb47 b63c c75c 2c3d f97c 893d
000003a0: 6410 ad3b 7828 493d 1160 093e 2e02 3c3c
000003b0: fb14 ef3d ec3b 21bd 7c26 31bd b9cd 37bc
000003c0: 0ae5 54bd 9aac 8ebe 7734 ca3c 5e43 35bd
000003d0: 7f0d d53d 0732 0abd fcad 9d3d 0b83 d6bd
000003e0: 42af bc3b 48d3 953d 38ef f8bd 337b 47bd
000003f0: a050 9a3d 8e00 cf3c 3d64 0b3d d3c7 203e
0.0488502 0.06338252 -0.096418105 0.27216882 0.016692089 0.10141372 -0.25746015 0.053600084
0.017429495 -0.0987614 -0.054783024 0.17821625 -0.0901525 0.03099718 -0.010465148 0.023320068
-0.1934235 0.024339328 -0.067481786 0.0027109352 -0.072635226 0.058807924 -0.31858918 -0.08768938
0.01183952 -0.0028309335 0.05154209 0.065073445 -0.0146516375 0.19840214 0.013185387 -0.106428266
-0.015939193 0.054000575 0.1085057 0.037033472 -0.042892188 -0.040619247 0.051205784 -0.10379621
0.022823257 -0.0045401608 -0.073949486 0.048136666 0.12297022 -0.011092478 -0.13033712 -0.09828903
0.288838 -0.27854985 0.0050487304 0.091714755 -0.07826815 0.19604953 0.021256892 0.13203563
0.0070801126 0.076657854 0.023889106 -0.072092086 -0.054691873 0.16638757 0.037717603 0.16762888
-0.020064592 0.13791138 -0.12867837 -0.0070053446 0.0024844962 0.027592896 -0.010819954 0.010542699
-0.20792164 -0.1448018 -0.0071875537 -0.034705464 0.037452802 -0.031200167 0.019096732 0.23313348
0.024446093 -0.031771883 -0.04146151 0.023312422 0.14220718 0.006658716 -0.024423001 -0.049763847
0.06824612 -0.08348551 -0.0045714006 -0.010466644 -0.021320298 -0.017581549 0.103631586 -0.047278836
-0.02535556 -0.14582027 0.39997393 -0.08927728 -0.055379383 0.06906569 -0.027006738 0.08693824
0.026897132 0.17192633 0.09730436 0.07020558 0.02700507 -0.0363045 -0.0248869 0.09372291
0.0978822 0.2419269 -0.0060196524 0.1465824 -0.10357706 -0.021337235 0.032024384 0.054689802
0.007003661 0.011112565 -0.105575524 -0.15919515 -0.015208033 -0.04501047 0.02953413 -0.1121785
0.06407436 0.07890108 0.05860663 0.04611439 -0.034903247 0.011418493 0.16136575 -0.000534336
0.017503824 -0.044188913 0.039785784 -0.040014632 -0.0347765 -0.07025211 0.016276736 -0.05781306
0.09549752 -0.05359336 0.050226495 -0.15434165 0.34312356 0.048919354 -0.1202433 0.029740889
0.030195987 0.055815484 0.04244242 0.16419378 0.04697585 0.027780334 0.034411963 -0.026507769
0.015987491 0.017531682 0.08199416 0.24775812 0.018701382 0.100897506 -0.09409604 -0.0018329385
0.020110253 0.06544184 -0.018392911 0.024711462 -0.06735342 -0.10171183 -0.0036835812 -0.059363294
0.038767714 -0.14543091 0.09497916 0.037012067 0.066733204 0.077864245 -0.016981838 0.017198939
0.17621833 0.0061178687 0.07392031 -0.04639459 0.0042916588 -0.0048398837 -0.049672462 -0.22276215
0.019744264 -0.05826494 0.09833993 -0.04126275 0.07530233 -0.1367153 0.18408573 0.09620836
-0.15860708 -0.008504283 0.066225916 0.07601546 0.04598646 0.15889329 -0.029605428 0.0013385154
0.044355217 -0.03185005 0.04232251 -0.044787902 0.04683273 0.22243156 0.019039419 0.041688032
-0.10627931 0.03166265 -0.026600825 0.05941318 -0.07365241 0.04371636 -0.06323703 -0.04279244
0.016984588 -0.05185823 0.030485509 -0.17028353 0.107354455 0.022251 0.042080667 0.0671329
0.005281495 0.04911086 0.13415553 0.011475129 0.116739236 -0.039363787 -0.043249592 -0.011218482
-0.05197624 -0.2786606 0.02468322 -0.0442537 0.10402965 -0.033739116 0.076992005 -0.10474213
0.005758197 0.07315689 -0.12155002 -0.048701476 0.07534909 0.02526882 0.03403114 0.15701227

fc.bias f4 [24]
00000000: 611a a4bb ea21 79bc f6c7 403d 050f 133d
00000010: 87d5 963c 7c81 ef3d 9219 1e3e 1683 333e
00000020: a4df db3d 71f7 123e 33ba 683d a188 c03d
00000030: 1e38 273d 3b40 413e 3ae5 e93d 5ec8 433e
00000040: 9ee2 533e 34c8 1f3e 16a7 3a3e 7954 373e
00000050: 1c9e 153e 9146 c83c 51b2 f23d 1223 8e3d
-0.0050080274 -0.01520584 0.047065698 0.035902996 0.018412365 0.11694619 0.15439442 0.17530474
0.107360154 0.14352204 0.0568182 0.0940106 0.040825002 0.18872158 0.114206746 0.19119403
0.20691916 0.15603715 0.182278 0.17903318 0.14611095 0.024447711 0.118504174 0.06940283
