OptiFlowData/best_lstm_checkpoint_250206.pt (torch, 63791 bytes, 6 tensors)

lstm.weight_ih_l0 f4 [200, 19]
000000 45 70 8c be 16 af b2 3f 65 0c 80 be e8 b0 1a 3e
       -0.27429405 1.3959682 -0.25009456 0.15106547
000010 34 29 27 3d 44 51 b9 3f a1 73 d8 bd 71 ea 2b 3d
       0.04081078 1.4477925 -0.105689295 0.041971628
000020 f9 74 82 3d b9 e5 3c 3e c7 3d b4 bd 76 e5 da be
       0.06369967 0.18447007 -0.088008456 -0.4275319
000030 31 af 53 be 37 df db 3e a9 24 69 be c9 1a bc bd
       -0.20672299 0.42943737 -0.22767891 -0.09184796
000040 8a 50 d6 be f6 74 3a bd dc 72 b8 bc 31 57 aa 3c
       -0.4185832 -0.0455217 -0.022515707 0.02079353
000050 a5 11 a2 bf 49 6d 88 3e 44 59 6f be 29 38 2a 3d
       -1.2661635 0.26645878 -0.23373896 0.041557465
000060 d8 44 74 bd cd 5f 52 3f 4b c5 08 3d a9 f5 e1 3d
       -0.059635967 0.8217743 0.03339128 0.11033184
000070 26 15 ba 3e 38 fe ae be 80 8a 2a 3e c8 c9 f1 3e
       0.3634426 -0.3417833 0.16654396 0.4722426
000080 ff 2c 46 bc c1 43 d8 3e 48 f3 01 3f 76 dc ac bd
       -0.012095689 0.42239192 0.5076184 -0.08440487
000090 e4 f8 2f bd ac d7 8d bc 0e 43 f4 bc 27 fa f4 3f
       -0.04296197 -0.017314754 -0.02981713 1.913884
0000a0 f3 05 0a bc 0e 39 01 3e 5b 3e 47 3d 13 b8 d6 be
       -0.00842427 0.12619421 0.04864345 -0.41937312
0000b0 c7 4e 59 be 13 f7 dc 3b 4b 39 33 3e bc f5 30 be
       -0.21221457 0.0067433207 0.17502324 -0.1728124
0000c0 4b 79 79 3d 47 55 71 3c 0d 0a 74 3e ba e3 87 bd
       0.06090669 0.014729804 0.23831959 -0.06635232
0000d0 d0 a9 15 3e 5b 75 a7 3c 62 c9 e2 3e 62 2d e1 bd
       0.1461556 0.020441702 0.44294268 -0.10994984
0000e0 c8 8f 08 be 19 a5 c7 3d 56 dd 2c c0 d3 91 12 3f
       -0.13336098 0.09748287 -2.7010093 0.5725376
0000f0 1d 8c 07 3f d1 6f 81 3d d4 d8 83 3f cc 1e a3 3d
       0.5294817 0.063201554 1.0300546 0.079648584
000100 2a 93 61 3e 51 d9 f8 bd 64 3a 68 3e da e4 96 bd
       0.22028795 -0.12150825 0.22678524 -0.07367869
000110 f2 3c 73 3e 9a fb b0 3e b2 54 35 3f d6 62 00 3e
       0.23753718 0.34566957 0.7083236 0.12537703
000120 70 c1 b9 3e e5 08 4c 3e 72 c8 18 bd f0 d9 08 3d
       0.36280394 0.19925268 -0.037300535 0.033410966
000130 49 40 10 bf 9d 1a a2 3f ee c1 b4 3d d8 20 9e bd
       -0.5634809 1.2664372 0.08826052 -0.07721108
000140 52 60 58 3e 3f bb f4 bc ca fd 5c bd 29 6b 2d be
       0.21130493 -0.029874442 -0.05395297 -0.1693541
000150 ed 9a 4f bd 7f 89 15 3e 98 b5 8f 3d 90 7f 85 3f
       -0.050684858 0.14603232 0.07017058 1.0429554
000160 f0 f1 2e 3f a2 dc ac 3e 85 ca 01 3f fe ed fd 3e
       0.6833792 0.3376208 0.50699645 0.49595636
000170 c3 74 ca 3e ce 4a b5 3d 94 41 7b 3d 37 13 2a 3d
       0.39542207 0.088521585 0.061341837 0.04152223
000180 04 64 19 3f 6e eb 42 be df 87 4b bc 78 02 b5 bd
       0.59918237 -0.19035122 -0.012422531 -0.088383615
000190 ce 17 a0 bf ed 34 10 bc a3 57 23 be 91 51 9e bd
       -1.2507265 -0.008801681 -0.159514 -0.07730401
0001a0 de 1c 12 3e e7 40 23 3e 05 e9 3f be dd 25 48 be
       0.14268824 0.15942727 -0.18741234 -0.19545694
0001b0 21 32 88 bd fb 4d 28 3c f5 a8 a8 3d 06 90 db be
       -0.06650186 0.010272498 0.08235351 -0.4288332
0001c0 f2 97 d9 bd 10 3b 6e bd 69 cb 87 be 96 a1 2a be
       -0.106246844 -0.058161795 -0.26522377 -0.16663203
0001d0 d0 91 3d 3e 2b 74 e8 be 8b c3 6e 3e 34 88 9e bf
       0.18512654 -0.4540113 0.23316781 -1.2385316
0001e0 a9 48 0c 3e 7e bb 93 3d c8 19 56 3e ae 53 4a 3e
       0.13699593 0.07213496 0.20908272 0.19758484
0001f0 05 49 e6 bc 09 b1 9a bc 29 5c 94 3e 5a 9b 00 be
       -0.02811099 -0.018883245 0.28976563 -0.12559262
000200 a7 24 c0 3d 4a f7 79 3e 18 4b df 3e 70 24 38 3d
       0.09381991 0.2441074 0.4361198 0.044956625
000210 f8 0e 55 bd d6 e5 13 3d 87 b7 07 3e 78 81 ff 3e
       -0.05201623 0.03610786 0.13253604 0.49903464
000220 32 84 cd be 8c 71 28 be 80 37 7a bf 0c 5d 28 be
       -0.4013992 -0.16449565 -0.97740936 -0.16441745
000230 88 a5 f5 bc f2 e3 16 be 16 f9 c6 be a3 f1 0e 3f
       -0.029986158 -0.14735392 -0.38861912 0.5583746
000240 e7 07 f4 bd 38 6c 9e bd d5 8c 9d bd 46 66 59 bd
       -0.1191557 -0.07735485 -0.07692877 -0.05307605
000250 73 09 62 be 06 14 e8 3e b7 41 0e 3e 94 e6 7f 3d
       -0.22073917 0.45327777 0.13892256 0.062475756
000260 f2 02 ab bd c0 e4 96 bf b7 7b dc 3e 39 32 23 be
       -0.08350171 -1.1788559 0.43063137 -0.15937127
000270 7c cc 0f be 2e 6e 18 3f 93 58 1a 3d c8 c5 f4 bc
       -0.14042848 0.5954312 0.037682127 -0.029879466
000280 56 05 b0 bd 93 9d 44 3e 2d d8 20 bd 5e d1 1d 3e
       -0.08594768 0.19200735 -0.03926866 0.15411898
000290 75 47 66 be fd 2d 45 be d4 11 3f be a7 2d 28 be
       -0.22488196 -0.19255824 -0.18659145 -0.16423665
0002a0 c6 31 83 bd f6 3c 47 bd b8 56 62 bd 74 1b 6e be
       -0.06405978 -0.04864212 -0.055258483 -0.2325266
0002b0 7d 43 d5 3e 8e f4 72 bf 39 14 31 be 13 80 86 3d
       0.41653052 -0.9490441 -0.1729287 0.06567397
0002c0 ef 05 82 bf 7d 62 19 3d 29 61 75 3d 45 b7 e9 be
       -1.0158061 0.03744744 0.059907112 -0.45647636
0002d0 cd 64 f0 be 5e 2f 2c bd f9 b5 36 3e ee 83 9c 3e
       -0.46951905 -0.04203736 0.17842855 0.30569404
0002e0 58 eb cb 3e 68 04 27 3e 80 3f a1 3d 62 57 c2 3d
       0.3982799 0.16310275 0.0787344 0.09489323
0002f0 40 c5 8e 3d ca 50 f4 3d bd cb 96 3e 04 46 da 3f
       0.06971216 0.11929472 0.29452315 1.7052617
000300 a9 65 f2 3e 3b 3f 11 bd 8b f3 28 be 3b 15 8f bd
       0.47343186 -0.035460692 -0.16499154 -0.06986471
000310 7e 5d 7e 3c e2 14 d4 3d 09 99 2a be 52 b3 55 bb
       0.01552522 0.103555456 -0.16659941 -0.0032608104
000320 7d 4d db 3d 69 e3 30 be 8e 5f 12 3e 28 bc f5 3e
       0.10708139 -0.1727425 0.14294264 0.47995114
000330 0a 68 42 3e e8 a5 57 3e e0 e4 4f bd 06 21 8b 3d
       0.18985 0.21059382 -0.05075538 0.06793408
000340 bb e0 9d bd 99 7c 71 3d ab 7f 2c be 73 12 d0 bc
       -0.077088796 0.058956716 -0.16845576 -0.025399422
000350 d0 7c 82 bd 72 1f 04 be 68 8b 82 3f 18 08 d5 be
       -0.06371462 -0.1290262 1.0198793 -0.41607738
000360 e4 60 ec 3d 74 f8 11 be bf 26 a6 3d ba a3 5b be
       0.11541918 -0.14254934 0.08112859 -0.21449175
000370 16 03 a0 be b7 f4 4c bd fd 92 0c 3e 93 c4 bb bd
       -0.31252354 -0.050038066 0.13727947 -0.09168353
000380 d6 bf f9 bd 02 be 51 3d 36 09 b4 bd 2d e1 8e bd
       -0.12194793 0.051206596 -0.08790819 -0.069765426
000390 06 53 44 3b c1 a7 35 bd 0f 1f 90 3e 89 a2 db bc
       0.0029956712 -0.044349436 0.28148696 -0.026810901
0003a0 ad d7 32 3e e5 f8 20 3e 31 9a 26 be 4d eb 6c 3d
       0.17465086 0.15719946 -0.16269757 0.057841588
0003b0 8b 38 88 be 35 5e 05 3d 20 92 4b be e9 21 78 be
       -0.2660564 0.032560546 -0.19879961 -0.24231686
0003c0 03 6b 74 be 53 5c 8f 3d b1 4e 85 bd bd f0 33 3d
       -0.23868947 0.07000031 -0.0650915 0.043930758
0003d0 d8 e4 b1 3c 33 97 bf bd 50 9e 55 bd bc 36 f9 bc
       0.021715567 -0.09355011 -0.05215293 -0.030421607
0003e0 d4 ab 87 3d d3 e2 22 be 72 a6 17 3e b5 94 54 be
       0.066245705 -0.15906839 0.14809588 -0.20759852
0003f0 2d 79 71 3e 85 f0 ad be fc 77 8e 3d 42 31 3f be
       0.23581381 -0.33972564 0.06956479 -0.18671134

lstm.weight_hh_l0 f4 [200, 50]
000000 36 61 5b 3e 56 25 f2 bd 4a c2 8a bd 62 9b 94 be
       0.21423802 -0.118235275 -0.06775339 -0.29024798
000010 d9 ff b2 bd d1 ac e0 be ef 3b 0a 3f dd 8f b1 be
       -0.08740205 -0.43881848 0.539977 -0.3468007
000020 da d0 b0 3e 45 af 82 3c 6e 7c 0a 3e c3 89 2d 3f
       0.3453434 0.015952716 0.13524029 0.6778833
000030 f6 18 04 bd 3b d2 01 be a5 99 ad be 53 e8 d1 be
       -0.032250367 -0.12677853 -0.33906284 -0.40997562
000040 b5 58 fc be fb 7e 52 3e 62 ef 0a 3e 34 97 50 be
       -0.49286428 0.20556252 0.1356788 -0.2037018
000050 79 58 93 be 89 b7 dd 3d b5 9d 7a be cf 3d d3 bc
       -0.28778437 0.10826022 -0.24474223 -0.025786309
000060 56 32 b0 3d 20 09 87 bd 66 0a d0 3b 8f 24 a3 be
       0.08603351 -0.06593537 0.006348896 -0.3186383
000070 a8 33 8a bd 6a ac dd 3c 9c 3d 36 3c d4 5f ca 3d
       -0.06748134 0.027059752 0.011123087 0.09881559
000080 21 7e 2a 3e ee 76 a5 bd e8 32 88 3c ae c2 25 3e
       0.16649677 -0.08079325 0.016625836 0.16187546
000090 11 e8 17 be 17 e1 8f bd 44 b9 3e bf 99 61 6d 3f
       -0.1483462 -0.07025354 -0.7450144 0.9272705
0000a0 d1 b2 5e bc 6a 5a 0b 3f d8 62 c6 be 36 4a ac bc
       -0.013592438 0.54434836 -0.38747287 -0.02103148
0000b0 f4 58 ad bd 4b e1 1d 3e a8 be af bd 6a b8 17 3f
       -0.08464232 0.15417974 -0.08581287 0.5926577
0000c0 40 d4 9d be b5 07 b3 3d 4f 9d 5b be ab a7 a8 be
       -0.30825996 0.087417044 -0.21446727 -0.3294042
0000d0 96 7e 1d 3e 57 65 10 be 67 29 0f be 91 33 08 be
       0.1538032 -0.14101158 -0.13980637 -0.13300921
0000e0 d1 60 09 bf e4 1e 2a 3e 0a 74 8f 3e 23 80 8e 3e
       -0.53663355 0.16613346 0.28018218 0.27832136
0000f0 25 27 95 be 15 4f 40 3d 67 e1 9f be 88 66 94 3e
       -0.29131427 0.04695042 -0.31226656 0.28984475
000100 89 84 b4 3e 88 76 77 3e 5d 5e b7 be 4a f5 37 3e
       0.35257366 0.2416631 -0.3581418 0.17964664
000110 72 41 cd 3d 49 85 21 bc 86 e6 82 3e 8a 81 93 3c
       0.10022248 -0.009858438 0.255665 0.018006105
000120 a4 1b 28 3f 7b ff 3b be 2d a5 29 bc 60 e8 30 3e
       0.65667176 -0.18359177 -0.010354322 0.17276144
000130 94 1a f6 bd 0c 7c 23 3e 3b 1e e3 be 6f 09 1f 3d
       -0.12016788 0.15965289 -0.44359002 0.038827356
000140 df fd fd 3d ff 4f 30 be 1c 70 b8 3b 39 b7 7e bd
       0.12401938 -0.17218016 0.005628599 -0.062186453
000150 ce 77 4e bd 7c 32 22 3d f8 fc 2b bb ac 91 7d bc
       -0.050407223 0.039598927 -0.002624331 -0.015476625
000160 e7 b7 79 3e 9f 11 80 3d e6 dc 8f 3d 01 b9 fc 3c
       0.2438656 0.06253361 0.07024555 0.030849935
000170 36 5f 7c 3e 65 27 ed be 2d 4c 81 bc dd 7b 7b 3d
       0.24645695 -0.46319118 -0.015783394 0.061397422
000180 c1 35 0f bd 3d 51 39 bf 6e 8b c3 be 11 63 0f be
       -0.034963373 -0.72389585 -0.38192314 -0.14002635
000190 43 95 85 bd 5f df 18 3d e4 55 c0 3c 7c 1f 6f 3d
       -0.0652261 0.0373224 0.023478456 0.058379635
0001a0 eb 67 68 be 28 54 7c be 86 e3 6f be 3d 82 b9 be
       -0.22695892 -0.24641478 -0.23426637 -0.36232176
0001b0 54 25 af 3d d8 0b 95 be 7f a6 5d be 42 9d 3b 3d
       0.08552042 -0.291106 -0.21645544 0.04580427
0001c0 7d 78 31 be 81 78 07 3e 69 aa 4f be 60 0d 4d be
       -0.17331119 0.13229562 -0.2027985 -0.20024633
0001d0 02 18 62 3e 4e 40 ab be 59 b7 05 3d d6 10 31 be
       0.22079471 -0.33447498 0.032645557 -0.17291579
0001e0 f1 8e ce 3d f8 bd 7e 3b 6b 3c 94 3e 2e ec b9 bd
       0.10085858 0.0038870554 0.28952345 -0.09078251
0001f0 34 49 82 bd 83 d3 b7 be 5c da af bd 91 5c ad 3d
       -0.06361619 -0.35903558 -0.085865706 0.08464921
000200 7f 68 8f bb a5 1e 3f bc 79 7c 58 3e 32 95 ae bd
       -0.0043764706 -0.011665021 0.21141233 -0.085245505
000210 d9 b7 f4 3d be 36 15 be da 33 b4 be 6b 7e 1f 3c
       0.11949129 -0.14571664 -0.3519581 0.00973473
000220 68 00 34 bd e9 ea aa bd db 07 63 be 65 5a 81 3d
       -0.0439457 -0.08345587 -0.22170965 0.063160695
000230 75 7d 24 be ab 17 c6 bd dd 25 12 3e 9f fc 0e 3e
       -0.16063483 -0.09672483 0.14272256 0.13963555
000240 04 9b ab be 91 4e 03 bd 23 75 4a 3e d7 86 71 3d
       -0.33516705 -0.03205735 0.19771247 0.058966484
000250 65 34 9d 3b 03 f9 08 3e d5 a9 38 3d 35 18 4e 3f
       0.0047975057 0.1337624 0.04508384 0.80505687
000260 41 35 1d bf 65 3d 0b bb 7c de ed be 68 c0 e2 be
       -0.61409384 -0.002124631 -0.46458805 -0.4428742
000270 04 46 d9 be c1 5b f5 3e c4 07 3f be 72 dd 05 be
       -0.4243623 0.47921565 -0.18655306 -0.13072756
000280 d1 19 95 3e 2a 1e 8f bd 8f 91 a2 be 35 2a 31 be
       0.2912126 -0.06988175 -0.31751677 -0.17301257
000290 e6 ad b0 bd c6 7b 7f bf 83 8d 97 3c 0e 66 a0 3e
       -0.086269185 -0.9979824 0.018500095 0.31327862
0002a0 b7 fe a3 3d 5c 8d e9 bd 6f 41 e0 be c7 d2 0f be
       0.080075674 -0.11403915 -0.43799922 -0.14045249
0002b0 00 36 66 3f ce 70 77 3d dd ca d9 bc 68 de 24 3d
       0.8992615 0.060410313 -0.02658599 0.040251166
0002c0 18 f3 83 bd 83 0f 01 bf f2 65 cd bd d5 86 03 3f
       -0.06442851 -0.50414294 -0.1002921 0.5137761
0002d0 75 cf f9 3e f5 18 bb 3d e3 bc 00 3e 79 a7 8a be
       0.4879109 0.091356196 0.12572055 -0.27080896
0002e0 d2 5d 27 3f e4 45 fe be 0b 1d 3b 3e 8a 7f 5e 3d
       0.65377533 -0.49662697 0.18272798 0.05432085
0002f0 08 68 f7 be 42 17 ae 3e 5e f4 11 3d 3b ba 01 be
       -0.48321557 0.3400212 0.035633437 -0.12668698
000300 19 b3 99 bd 3d 57 8d be 6c 56 6f bf 55 89 f8 bd
       -0.07504863 -0.2760562 -0.93491244 -0.12135569
000310 72 18 bd 3e ff cf 2b 3e 31 73 d1 3e 52 76 f9 be
       0.36932713 0.16778563 0.40908197 -0.48723084
000320 34 f7 a7 bc 09 8a fc be 6e 9f 00 be a6 e6 00 be
       -0.020503618 -0.49324062 -0.12560818 -0.12587985
000330 fd eb fb bd 70 28 43 3e aa 53 52 bf f1 c5 b1 3e
       -0.123008706 0.19058394 -0.8215891 0.3472133
000340 ae eb 62 3e f4 6c d8 be 4e 4f 92 3e 0c 8c 1c 3e
       0.22160217 -0.42270625 0.2857613 0.15287799
000350 f4 e2 30 3d e1 f9 d8 be fe 33 1d 3f 90 51 04 3f
       0.04318519 -0.42378142 0.6140746 0.51686954
000360 27 8a 80 bd 01 97 ec 3d 76 88 99 3e 85 55 7c 3e
       -0.062763505 0.11552239 0.29986924 0.24641998
000370 df cb 53 be 56 70 71 3e 17 9c bc be f0 db 8d 3e
       -0.2068324 0.23578009 -0.36837837 0.27706861
000380 1b 72 c7 be 03 ad 11 bf e0 79 78 bd 41 eb b0 bd
       -0.38954243 -0.5690462 -0.060663104 -0.08638621
000390 8a 91 34 3e 01 16 6d 3d ad 29 39 3f ed 01 ae be
       0.17633644 0.057882313 0.7232922 -0.33985844
0003a0 dc a3 a6 3e 3b e8 3d bd 4c c9 39 3e 84 11 69 3e
       0.3254689 -0.04636405 0.18143195 0.22760588
0003b0 f5 b1 ab 3e e9 25 e2 bc b5 b7 7a 3e ae fb ae 3e
       0.33534208 -0.027605968 0.24484141 0.3417639
0003c0 c4 5b a5 bb 8f 34 5b bf ac d6 49 3d a9 1e de 3a
       -0.0050463397 -0.85627073 0.049276993 0.0016946393
0003d0 e1 cf b8 be 0f e1 72 3d 63 e8 6f 3e 4e e8 6f 3c
       -0.360961 0.059296664 0.23428492 0.014642788
0003e0 72 e0 bf be 2e 3f 54 be 66 06 75 3d d4 69 81 bd
       -0.37475926 -0.20727226 0.059820555 -0.06319013
0003f0 57 80 53 be 7d 5e a0 3d f5 af 99 3d af 6a 5b 3c
       -0.20654427 0.07830522 0.07504264 0.013392135

lstm.bias_ih_l0 f4 [200]
000000 0e 14 8f 3d 62 b6 fe b9 3a e2 b1 bd bc 44 90 3d
       0.06986247 -0.0004858254 -0.086857274 0.0704436
000010 01 a6 4c 3c 8b ec ea 3d 74 25 38 3e 92 32 14 3e
       0.01249075 0.11470898 0.17983037 0.14472416
000020 ed 0c 32 be 80 ab 19 3d 19 69 21 3e 33 08 cd 3d
       -0.17387743 0.03751707 0.15762748 0.100113295
000030 18 5d d6 3c 43 57 da 3d ce 63 db 3d 25 4c 8f bc
       0.026167437 0.10661175 0.107123956 -0.017492363
000040 1e 20 72 bc a4 af 1f 3e b1 c3 ef 3d 1c 3c 93 bd
       -0.014778165 0.15594345 0.11707247 -0.07189199
000050 f8 b4 8a 3d 85 a9 c6 3d 5a 9c 14 3e 80 67 62 3c
       0.06772798 0.09700302 0.14512768 0.013818622
000060 d3 a0 09 be ff cb 73 be 20 c0 0b bd 72 5a 3c 3b
       -0.13440256 -0.23808287 -0.03411877 0.0028740433
000070 69 da c8 3c 1d e3 29 3d 66 ae 0a be 2c 49 89 3d
       0.024518209 0.041476358 -0.1354309 0.067034096
000080 cd c9 b0 bd 9c d1 9a 3c 3d f9 77 3d ad bf 98 3d
       -0.086322404 0.018898778 0.060540427 0.07458434
000090 c5 06 4e 3b 9f 04 5e be 3e c1 06 be 46 e1 7a bd
       0.003143714 -0.2168145 -0.13159654 -0.061249994
0000a0 40 36 58 be 22 c3 43 3d d2 76 a1 3d 1f 82 3d 3e
       -0.21114445 0.047793515 0.07883991 0.18506669
0000b0 a5 6e 1c be 7d 1c 28 3e 92 0f f9 bd e6 6c 8c 3d
       -0.15276583 0.16417117 -0.12161173 0.06856708
0000c0 73 37 d2 3c 8a df 91 3b 16 17 50 3e b3 cd 1c 3d
       0.025661206 0.0044516968 0.20321307 0.038282108
0000d0 e7 bb 00 3e 21 0b 81 3e d2 d3 71 bd 93 73 a1 3d
       0.12571679 0.25203803 -0.0590399 0.07883372
0000e0 cf ec 07 3e a1 c1 a9 3d 17 1d 88 3a 52 6b 26 3e
       0.13273929 0.08288885 0.0010384646 0.16251877
0000f0 20 b1 fc bb c9 4b d4 ba e3 39 90 3e de d3 99 3d
       -0.0077115446 -0.0016196902 0.28169164 0.075111136
000100 d8 83 5e 3e 3a 89 14 3e c4 be 59 3d 72 27 03 3e
       0.21729982 0.14505473 0.053160444 0.12808016
000110 6d 2a e0 3d bf 11 99 3c ea d5 4d 3e c5 4c 03 bd
       0.10945592 0.01868522 0.20101133 -0.032055635
000120 e0 47 04 be 0a 1e 45 3e 6e a4 55 3e ae 58 b5 3e
       -0.12918043 0.1924974 0.20863506 0.3541922
000130 2a 33 c4 3c 9b a3 58 3d 97 03 1f 3d 36 3b 28 3d
       0.023950178 0.0528904 0.038821783 0.041072093
000140 1e 74 23 bd 3d 81 09 3e 2b 22 61 3e 23 8b ab 3d
       -0.03990566 0.13428207 0.2198569 0.083761476
000150 f8 c3 83 3d bc 45 6d 3e 30 45 79 3d 46 02 71 3e
       0.064338624 0.23171133 0.060856998 0.23536023
000160 12 f0 0e 3e a2 29 a4 3d 31 63 1d 3e 67 61 2d 3e
       0.13958767 0.08015753 0.1536987 0.16931687
000170 5c 69 b4 3d 31 49 37 3d fe b2 f6 bc 86 80 4b 3d
       0.08809158 0.044747535 -0.030114647 0.049683116
000180 c5 f8 7c bc ea d3 7a bc 25 f1 de 3d 2c 83 82 3d
       -0.015440171 -0.015309313 0.108858384 0.06372675
000190 f1 9e d4 bd b7 38 d3 3d 36 7b f2 3d 9b c7 6b 3c
       -0.10381878 0.10313552 0.11839907 0.014390851
0001a0 58 5d 2b bd ca c3 e0 3c e1 7c 02 be aa 96 16 3d
       -0.041837066 0.02743711 -0.1274295 0.03676478
0001b0 e5 34 76 bd cc 11 ca 3d 05 8a 89 3d 94 d7 25 3c
       -0.060109038 0.09866676 0.06715778 0.010122199
0001c0 09 ba 09 be a8 55 ac bc 77 f9 51 3e 3e 36 08 3d
       -0.13449873 -0.021036938 0.2050532 0.033254854
0001d0 fa b9 cf bd 62 12 1f 3d 63 ea 88 3d 78 10 06 3e
       -0.10142894 0.03883589 0.06685331 0.1309222
0001e0 29 f6 00 3e 2d 0f 20 3e 08 dd 2f be ca 77 0d 3e
       0.12593903 0.15630789 -0.1717416 0.13815227
0001f0 33 a5 aa 3d ec 91 a0 3d 56 44 87 bd 82 f1 38 be
       0.083322905 0.078403324 -0.06604831 -0.18060878
000200 21 b1 3f be 80 71 d5 bd c1 b2 bd 3d 15 31 a0 3d
       -0.18719913 -0.10422039 0.0926261 0.07821862
000210 ca e2 ae bd 25 64 06 3e c5 c5 24 bc 7d 65 b3 3d
       -0.0853935 0.1312414 -0.010056918 0.08759592
000220 b4 e3 33 bc c2 e4 ba bd 09 b5 e3 bd b0 2e f0 bd
       -0.010979582 -0.09125663 -0.11118514 -0.11727655
000230 c9 25 ec 3d c2 1a 8c 3d f0 ff a7 3d 6b 56 d9 bc
       0.115306444 0.06841041 0.08203113 -0.026530465
000240 14 cd e8 bd 19 c3 38 3c 7e 8f 6e bd 45 f4 1a be
       -0.113672405 0.011276984 -0.058242314 -0.15132244
000250 83 f8 ad 3d c0 7b fe 3d cb 6e e5 bd 83 ef c7 3d
       0.084946655 0.12425947 -0.11202773 0.0976248
000260 7a 8c 0f bc a9 f4 89 bd 0d 94 b5 3d 74 cf a7 3d
       -0.00876152 -0.06736118 0.08866129 0.081938654
000270 cb 6f 01 bd 61 09 b9 3d b0 b0 68 bc 55 99 9a bd
       -0.031600755 0.09034992 -0.014202282 -0.07548777
000280 e8 bd 8e bb 5d 6f 4e 3e 45 dc 79 bd 2c 55 de 3c
       -0.0043561347 0.20159669 -0.06100108 0.027140222
000290 a1 cb 98 3e 92 c6 99 3b 74 cd 26 bd e4 73 3f 3c
       0.29842857 0.004692861 -0.04072328 0.011685345
0002a0 6c 95 94 bd 77 a9 d7 3c 9d a7 66 3e 59 44 ae bd
       -0.072550625 0.026325924 0.22524877 -0.0850913
0002b0 2b ee 0a bb 00 78 09 3e 6a fc 69 3e 79 73 3b 3d
       -0.0021199088 0.13424683 0.22850195 0.04576442
0002c0 b4 bf c8 bc 9e a6 89 bc 58 7a c0 3d 74 86 88 3d
       -0.024505474 -0.016803082 0.09398335 0.0666627
0002d0 ce 99 14 3d 91 17 75 bd 62 7c 1f bc 2b 5a 43 3c
       0.036279492 -0.059836928 -0.009734245 0.011923353
0002e0 98 82 9c bc 91 17 33 3e 47 51 79 3d 82 fb ce bc
       -0.01910524 0.17489459 0.060868528 -0.025266413
0002f0 f1 3a f8 3d ab 68 dc 3d fb fe 04 be 32 ca a7 3e
       0.12120617 0.10762151 -0.12987892 0.3277145
000300 04 ff 08 3e f5 18 68 3d d9 7e ee 3c 3b cf ee 3d
       0.1337853 0.056664426 0.02911322 0.1166062
000310 0a 9d 1f 3e ad a3 9d 3e b9 5a 23 3c bb 04 13 3d
       0.1558725 0.30788937 0.00997036 0.035893183

lstm.bias_hh_l0 f4 [200]
000000 9f dc 04 be 7e f7 90 3b 03 19 2b 3e 55 ba 21 3e
       -0.12974785 0.0044240346 0.1670876 0.15793736
000010 fd 81 1d be 15 bf 8f bd 38 0b 6e bd c4 57 0b 3e
       -0.15381618 -0.07018868 -0.058116168 0.13607699
000020 19 46 bf bd ad d1 38 bc af 93 6a bd 7c 76 93 b9
       -0.09339542 -0.011280459 -0.05726975 -0.00028126303
000030 13 9a 15 3e 03 82 10 3e 89 cd 6f 3e c4 5a c6 3d
       0.14609556 0.14112096 0.23418249 0.09685281
000040 58 3a 1b bd 14 63 b5 3c 12 d7 52 3e ad b0 66 bc
       -0.037897438 0.02214197 0.20589855 -0.014080209
000050 b2 40 da bd 04 b4 94 bd 71 64 a6 3d 74 b6 f4 bc
       -0.10656871 -0.07260898 0.081246264 -0.029872157
000060 d7 0d 33 be 28 d2 70 be d3 5a 08 3e 31 18 b0 bd
       -0.17485748 -0.23517668 0.13315897 -0.08598364
000070 09 01 68 3d 12 b1 5b 3c 31 33 6d bd b0 ff 1c bc
       0.056641612 0.013408916 -0.057910148 -0.009582445
000080 1b 18 8b bd 6c 2d c2 bc 94 26 76 3d 21 93 c8 3d
       -0.06791707 -0.0237033 0.060095385 0.097936876
000090 bb ad 56 3d e8 a5 38 be b6 e8 4d 3d 5f 5b 88 3d
       0.052411776 -0.18032038 0.05027076 0.06658053
0000a0 df 45 09 be 07 e8 ea bc 80 3e b0 bd 95 fa 3c 3c
       -0.1340556 -0.028675092 -0.08605671 0.011534353
0000b0 39 fc 81 bc 28 4f d8 bc b5 cc 1d 3d bf 51 49 3e
       -0.01586734 -0.026404932 0.038525302 0.1966009
0000c0 b5 8e 5f 3c 40 6f 9b bc 8b 9f 8a 3e 7e 9b 94 3d
       0.013644864 -0.018973947 0.27074847 0.0725622
0000d0 aa b0 0b 3e 5d 42 08 3e 57 1c bb 3d 25 f9 79 3d
       0.1364161 0.13306566 0.09136265 0.06102862
0000e0 92 1f 9f 3d a3 81 9e 3c 95 2d 0f 3d 14 a0 42 3e
       0.077696934 0.019348925 0.03495558 0.19006377
0000f0 37 b7 5f 3e be 86 37 3e 4a b1 d1 3d ba de 41 3e
       0.21847235 0.17922494 0.10238893 0.1893262
000100 70 61 8d 3c 83 21 63 3e 3a f4 8c 3e 95 fd 62 3e
       0.017258376 0.22180752 0.2753008 0.22167046
000110 2d 7a 0d 3e b4 28 d0 3d ac b6 19 bd 84 80 08 3d
       0.13816138 0.101640135 -0.037527725 0.033325687
000120 00 6d 18 bd 26 d3 69 3e e5 d8 a2 3d 71 ad 71 3e
       -0.037213326 0.22834453 0.079515256 0.23601319
000130 7c 25 73 3e 4e 37 7b 3e 20 99 37 3e d4 7c 39 3d
       0.23744768 0.24532816 0.17929506 0.04528506
000140 05 51 18 3e 82 70 ba 3d c5 de 07 3e 62 18 ee 3b
       0.14874656 0.091034904 0.13268574 0.0072660903
000150 05 48 c6 bc 90 b2 0e 3e 72 e4 a6 3d 2b 93 38 3e
       -0.024204263 0.13935304 0.08149041 0.1802489
000160 82 74 52 3e 5c fd 2c 3e fa e6 4a 3e 86 f6 69 3e
       0.20552257 0.16893524 0.19814673 0.22847947
000170 49 c0 8e 3d 9f 8c 6c 3d 20 0b 3d 3e 68 5a bf 3d
       0.06970269 0.057751294 0.18461275 0.093434155
000180 06 45 08 3e 81 99 1c 3e 4f 3d 1d 3e 41 50 71 3d
       0.1330758 0.15292932 0.15355419 0.058914427
000190 dc 2f 32 be fe fb 1a be f2 ec c7 bd b5 9f 2e be
       -0.1740107 -0.1513519 -0.097619906 -0.17053111
0001a0 a3 bc 8c bc 2d bd b1 bd 3b 58 12 3e 2c 76 2e bd
       -0.017179793 -0.086786605 0.1429147 -0.042593166
0001b0 38 9f 67 bb ab 17 b8 3d 89 4e 35 3d 6d 0e 47 3d
       -0.0035342705 0.08988889 0.04426435 0.048597742
0001c0 a2 df 2f be b3 cd 92 3d 4b 0c 51 3e 6b 63 ab 3c
       -0.17175153 0.0716814 0.20414846 0.02092143
0001d0 c7 3e 0f 3b 7c 4f 39 bc d9 a1 84 3d 92 55 5b 3d
       0.0021857487 -0.011310454 0.064761825 0.053548403
0001e0 f9 68 07 3e 66 1f e8 3d 5c d4 a1 3d 0a 63 08 3e
       0.13223638 0.11334114 0.079018325 0.1331903
0001f0 1d a6 71 bd 17 7b 5b 3d 33 a8 d4 3c 26 af 27 3d
       -0.05899631 0.053584184 0.02595911 0.04093852
000200 ea bf 06 be 9a a9 b2 3c 78 ff e5 bd 61 09 72 bd
       -0.13159147 0.021809388 -0.112303674 -0.059090976
000210 7e b5 e7 3c 21 9a 8f 3c 51 7f 0f 3e e8 45 26 bd
       0.028284784 0.01752955 0.14013411 -0.04059401
000220 27 f8 8b 3d 22 5d 10 3e ee 18 52 bd 05 d0 3e bd
       0.06834441 0.14098027 -0.051293306 -0.0465851
000230 fa 1f 0f 3e cc 7c 14 3e c3 8f 98 3d 82 a1 2e bd
       0.13977042 0.14500731 0.07449295 -0.042634495
000240 8a 22 c9 3d 9b 0f 46 3d 87 03 0f bd 96 81 b3 bd
       0.09821041 0.048354726 -0.034915473 -0.08764951
000250 a4 aa b1 bd 7a b9 2d bd 3a c6 bc bd 7a df b5 bd
       -0.08675125 -0.042413212 -0.09217496 -0.088805154
000260 67 45 7e 3b 85 39 a5 bd e6 34 ad 3d 0b f6 67 3d
       0.0038798691 -0.080676116 0.08457355 0.05663113
000270 0a d8 f0 b9 bf c0 a0 bc 5b b9 da 3c 33 ed 04 be
       -0.0004593733 -0.019623158 0.026699712 -0.1298111
000280 34 a6 3b be 1d b5 a2 3d f0 66 6d bd bb 56 14 3d
       -0.1832512 0.07944701 -0.057959497 0.036215525
000290 76 a3 81 3e b6 e7 2f bc e4 ec 1b 3e fa b6 82 bc
       0.25320023 -0.010736397 0.15227085 -0.01595639
0002a0 53 9b 83 bd a7 de 1b 3e ff 5d ba 3d ec 0b ce 3d
       -0.0642611 0.15221654 0.090999596 0.10060868
0002b0 12 51 11 3d 9f fa 8d 3d 34 62 97 3e ec 82 f8 3d
       0.035477705 0.06932568 0.2956711 0.12134346
0002c0 bf 47 ad bc b5 79 0b 3d 13 63 23 3d 76 ec ac 3d
       -0.021152375 0.034051616 0.039889406 0.08443539
0002d0 c6 c5 05 be ae 96 fa bc a7 98 a2 3d 94 99 25 3e
       -0.13063726 -0.030589428 0.079392724 0.16171867
0002e0 75 de 1e 3d 20 61 db 3d f7 3a 3c 3d f2 2a 1d bd
       0.03878637 0.107118845 0.04595467 -0.038371034
0002f0 66 ec 4d 3e 02 d2 1d bd 27 2b d6 bd 42 08 a1 3e
       0.2010971 -0.038530357 -0.104574494 0.31451613
000300 3b 4a 47 bd 67 b2 28 3e 6f 7f 47 3d b4 79 7e 3e
       -0.048654776 0.16474305 0.048705515 0.24851114
000310 c1 6f 47 3e ad 35 12 3d f1 05 b8 3d 2d 2b f7 3d
       0.19476224 0.03569572 0.08985508 0.12068782

fc.weight f4 [24, 50]
000000 93 de 0b be 50 72 9d bd 41 a5 89 3b 8d f1 14 3e
       -0.13659124 -0.07687819 0.004200608 0.1454527
000010 cc 38 e1 3c 67 e7 ae 3c 31 2f b7 bb a6 9c b8 bd
       0.027492903 0.021350576 -0.0055903425 -0.09014253
000020 25 92 88 3b d8 60 61 3d a4 9f 0c 3d 5f dd 39 3e
       0.0041678124 0.055023998 0.034331933 0.18150853
000030 cc 0d 57 be 8e d2 67 bd 4b d6 4e 3d a4 78 b4 bd
       -0.21001357 -0.056597285 0.050497334 -0.08812073
000040 61 d2 54 3d e7 f0 7f 3d 81 eb 2c 3d 4a e4 c0 3d
       0.051958445 0.0624856 0.04221678 0.09418543
000050 88 d5 37 bd 34 11 98 3d ae 43 a7 3e 17 66 7b bd
       -0.044881374 0.07425156 0.32668823 -0.061376657
000060 49 8b d3 3d 44 72 6a 3c 1b 74 20 bd c3 47 84 3d
       0.10329301 0.01430947 -0.039173227 0.06459
000070 a2 71 e7 bd ad 93 59 3c c1 b3 5f 3c 52 fb 95 3d
       -0.113009706 0.013279838 0.0136536965 0.07323326
000080 f5 95 1b 3e 71 93 36 3d cd 76 48 3b 87 38 3d 3d
       0.15193923 0.044574205 0.003058839 0.046196487
000090 0a 5d f4 3c 70 89 a5 bd 8f a6 3f bc 70 5a 7a bd
       0.02982952 -0.08082855 -0.0116974255 -0.061121404
0000a0 b0 06 1f 3e 3a 84 53 be 86 96 12 3d 8c bc 87 be
       0.15529895 -0.20655909 0.03578808 -0.26511037
0000b0 6f b6 c9 3c 2b 4e 83 3d de bb d2 3b 97 5d 14 bc
       0.024623124 0.06411394 0.006431087 -0.009055517
0000c0 ae 63 af bd 14 dd 50 bd a6 fe ba bd c9 d9 10 bd
       -0.08563934 -0.050992087 -0.091306016 -0.035363946
0000d0 b7 20 b7 bd 62 59 45 3c 84 33 11 3d 69 11 82 3c
       -0.08941787 0.012045236 0.03544952 0.015877442
0000e0 78 8a 00 3d bb 8c 40 bd f5 d1 8b 3b 89 b2 88 3d
       0.031382054 -0.04700921 0.004266972 0.06674678
0000f0 57 22 ee 3c 58 ac 1b 3e 81 20 9e be 5d 68 c1 bd
       0.029069109 0.15202463 -0.30884174 -0.09443734
000100 05 b5 b3 3d d8 1b 1b be f8 5c 1b bd 29 e0 1e 3d
       0.08774761 -0.1514734 -0.03793046 0.038787995
000110 ba 16 ee bb 85 88 16 3d 0a 84 2a bd 8e 91 d4 3d
       -0.007265893 0.03675129 -0.04162983 0.10379325
000120 ba 30 42 bb ad 9a 3a 3c d1 fc 43 3e 29 31 8b bc
       -0.0029631094 0.011389417 0.1913941 -0.016991215
000130 ad 90 d9 bc f5 bf 13 3d 76 67 a9 3c f0 bd 37 3d
       -0.026558245 0.036071736 0.020679217 0.044858873
000140 01 85 b4 bc d4 c3 7c 3d 61 3e 4b 3d 6b 3a bf 3d
       -0.022036077 0.061710194 0.049620036 0.09337314
000150 54 08 41 bd 35 a4 f5 3c b5 78 0d 3d 6e 5e 08 be
       -0.047127083 0.029985527 0.034538943 -0.13317272
000160 5d cc 5e bd 35 46 d8 3c c7 31 08 3e 3a 19 e7 bc
       -0.054394115 0.026400665 0.13300239 -0.028210271
000170 28 94 a7 3c 15 e2 83 be 9e 6d e3 3c b0 30 97 3d
       0.020456389 -0.25758424 0.02776223 0.07382333
000180 8d 94 25 bb 4a dd bc b9 e6 57 d7 bd 7a 8a 1d bc
       -0.0025265545 -0.00036023027 -0.10514812 -0.009615535
000190 8c 2e a2 bd 4b 81 89 bd 7c d1 2b be 8b 0d d1 bd
       -0.07919034 -0.06714114 -0.1677913 -0.10207661
0001a0 24 ca 21 3d ce ea 58 3b 8a f2 3a bc 79 dd 27 bc
       0.039499417 0.003309894 -0.011410365 -0.010245674
0001b0 e4 63 9f bb de 39 ad 3c ba 55 07 3d b0 88 b3 3d
       -0.004864203 0.021145757 0.03304074 0.087663054
0001c0 dc 23 b2 be 65 38 8c bd 08 68 95 3d e6 c3 0c be
       -0.34792984 -0.06846694 0.07295233 -0.13746604
0001d0 88 d0 38 bd cc ae be bb 8d 9b 41 bd ea 5e 2a bd
       -0.045120746 -0.0058191773 -0.047267485 -0.041594423
0001e0 e3 58 7f bd 47 72 da 3d 61 10 f8 bd b4 9b 84 3d
       -0.06234063 0.10666328 -0.12112499 0.064750105
0001f0 9e 8c 55 3e 3d 8d 32 bd e2 b8 e6 bc 60 b0 7f 3d
       0.20854422 -0.043591727 -0.02816433 0.062424064
000200 9d 1d 19 bd f0 db 63 3d a4 fc d0 bc b6 ae 7c 3d
       -0.037381757 0.05562967 -0.025511093 0.061690055
000210 33 ee 28 3c 88 ad 70 3d 6b cf 3c bd c7 7c 93 3b
       0.010310697 0.058759242 -0.046096247 0.0045009586
000220 86 9b 6f 3c b9 31 11 be 2e ae 96 bd 82 7f 26 3d
       0.014624482 -0.14179124 -0.07357441 0.040648945
000230 2c b5 12 3e ce ef 2a 3d bc c1 f1 3b e2 48 c7 bd
       0.14326924 0.0417326 0.0073778313 -0.09730698
000240 27 f8 24 3d ad c0 e0 3d 64 94 2d 3b 0d ba a6 3c
       0.04027572 0.1097425 0.0026486153 0.020352388
000250 81 b0 eb bd e3 7e 42 3d ad 13 70 bd 42 34 a2 bd
       -0.11508275 0.04748429 -0.058612514 -0.07920124
000260 dd f5 31 be 84 2e a5 bd df be 0d 3d 43 fc 8b bc
       -0.17378946 -0.08065513 0.034605857 -0.017088061
000270 c1 82 96 bd c6 cd ac 3b 4f 00 08 3a 9c 51 d7 bc
       -0.07349158 0.0052735535 0.0005188034 -0.026284032
000280 a4 ce ad 3c 8e 48 07 3c 12 56 85 be 6d 67 7e bc
       0.021216698 0.0082570445 -0.2604223 -0.015527588
000290 b3 5e 9b 3c 1d 7e b0 bd 42 17 12 bb 7a 64 36 bd
       0.018966055 -0.08617804 -0.0022291695 -0.044529416
0002a0 a7 16 35 bd 28 cf 8d bd 91 ba 92 bd f6 51 c3 3d
       -0.044211056 -0.069242775 -0.07164491 0.09537117
0002b0 49 7b 9c bd f2 19 91 3d 51 60 36 3e 83 25 02 bd
       -0.07640702 0.07085027 0.1781018 -0.031774055
0002c0 64 66 d4 bc 55 fa ae 3d 73 4e 06 be 6b ae 1e 3d
       -0.02592773 0.08543841 -0.13115864 0.038740557
0002d0 e8 c2 54 bc 13 1d 83 3d ed b6 ad 3c e8 5e 61 ba
       -0.012985922 0.0640203 0.02120539 -0.0008597211
0002e0 bf 6c ac bc af ce 10 bc b0 7b 75 b7 b4 53 e1 bd
       -0.021047948 -0.00883834 -1.4631936e-05 -0.11002293
0002f0 f0 dc ac bd 61 24 0d 3c f3 3c 0b 3e c4 a7 49 3d
       -0.08440578 0.00861463 0.13597469 0.04923226
000300 d5 b8 26 3c ee 76 d4 3d 00 79 f3 3c b9 f6 ea 3d
       0.010175903 0.103742465 0.029720783 0.1147284
000310 24 bc 34 3c 6f 18 fa 3c 46 fd ac bd a0 0f b2 3d
       0.011031184 0.030529229 -0.084467456 0.086943865
000320 20 0c a6 bd 35 c2 0a bd b1 56 f9 bd 28 8b be bd
       -0.081077814 -0.033876617 -0.12174738 -0.09303886
000330 93 98 da 3c f9 4d cd bc 38 65 cf bd 9e c6 d7 bb
       0.026684081 -0.025061594 -0.10126728 -0.0065849563
000340 f6 69 36 3c d2 fd 2b bd 68 39 bb 3c 16 2f 0b bd
       0.0111336615 -0.04199011 0.022854522 -0.03398045
000350 44 21 04 be 93 8e a1 3c ed 79 85 bc a2 04 21 bd
       -0.12903315 0.019721305 -0.01629349 -0.03931106
000360 78 e8 3b 3d da 9d 01 bd 88 84 14 3c 16 e8 c3 bc
       0.045875996 -0.03164468 0.009064801 -0.023914378
000370 2b 4f a7 bd 3b af ba 3d ea 89 1b 3d f4 84 35 3d
       -0.08169397 0.09115454 0.037973322 0.044316247
000380 d4 09 fc 3d 2f 14 52 bc 08 28 60 bd df 8c eb 3d
       0.12306562 -0.012822195 -0.054725677 0.115014784
000390 23 3b 85 be 21 52 46 3c 17 bf 50 3b a9 bb af 3d
       -0.2602168 0.012104542 0.003185218 0.08580715
0003a0 4a 99 90 3d d7 b8 80 bd 51 64 44 bb e3 5e f1 b9
       0.070604876 -0.062852554 -0.002996702 -0.00046037798
0003b0 28 13 27 3c 53 16 c1 bd 4a c7 bd bd c3 6a 27 bd
       0.010197438 -0.09428086 -0.09266527 -0.0408733
0003c0 10 36 f6 3d 20 2e 43 3c 12 f8 fb 3c 56 14 52 3e
       0.1202203 0.0119128525 0.030757938 0.2051557
0003d0 06 0f fd bc e5 dd a4 3d 0c 5c ea 3c 30 d8 be 3c
       -0.030890953 0.080501355 0.028608344 0.023296446
0003e0 96 de f8 bc a6 f9 af 3d 4a 6a eb bd a1 59 78 3d
       -0.030379575 0.085925385 -0.114948824 0.06063235
0003f0 a3 e0 22 bd c6 00 af bd 0e a0 7e 3c 2d 79 2b bd
       -0.03976501 -0.085450694 0.01554109 -0.04186361

fc.bias f4 [24]
000000 63 fb d3 3d 0b 5d f3 3d cf 7d cd 3d 99 ff 1c 3e
       0.103506826 0.11882981 0.10033762 0.15331878
000010 f4 3b 05 3e af c3 fa 3d ae ca 04 3e f7 92 eb 3d
       0.13011152 0.12244355 0.12967941 0.11502641
000020 63 7c 3e 3e 3d 9b 48 3e a7 e0 52 3e da 68 3e 3e
       0.18602137 0.19590469 0.2059351 0.18594685
000030 c3 b4 01 3e ee 45 f8 3d 64 af 1a 3e e0 e0 28 3e
       0.12666611 0.12122713 0.15105969 0.16492033
000040 72 20 0a 3e 35 4f 35 3e 8d 9a 07 3e bb 58 21 3e
       0.1348894 0.17705996 0.1324255 0.15756504
000050 e3 f5 37 3e 67 f2 12 3e 94 4e d4 3d e7 8b 11 3e
       0.17964892 0.14350282 0.1036655 0.14213525
